Namespace(runs=10, lr=0.001, epochs=401, cuda='cuda:0', root='G:\\myProject\\ASLAM-3\\datasets', device=0, wd=0.0005, bs=32, patience=20, K=20, metric='auc_ap', dynamic_train=False, dynamic_val=False, dynamic_test=False, update_steps=5, dataset='citeseer', val_ratio=0.05, test_ratio=0.1, train_percent=1.0, val_percent=1.0, test_percent=1.0, use_new_split=False, use_feat=False)
ASLAM(
  (dgcnn): DGCNN(
    (convs): ModuleList(
      (0): GCNConv(51, 32)
      (1-2): 2 x GCNConv(32, 32)
      (3): GCNConv(32, 1)
    )
    (conv1): Conv1d(1, 16, kernel_size=(97,), stride=(97,))
    (maxpool1d): MaxPool1d(kernel_size=2, stride=2, padding=0, dilation=1, ceil_mode=False)
    (conv2): Conv1d(16, 32, kernel_size=(5,), stride=(1,))
    (lin1): Linear(in_features=32, out_features=16, bias=True)
  )
  (dgcnn_2): DGCNN(
    (convs): ModuleList(
      (0): GCNConv(33, 32)
      (1-2): 2 x GCNConv(32, 32)
      (3): GCNConv(32, 1)
    )
    (conv1): Conv1d(1, 16, kernel_size=(97,), stride=(97,))
    (maxpool1d): MaxPool1d(kernel_size=2, stride=2, padding=0, dilation=1, ceil_mode=False)
    (conv2): Conv1d(16, 32, kernel_size=(5,), stride=(1,))
    (lin1): Linear(in_features=32, out_features=16, bias=True)
  )
  (lin1): Linear(in_features=32, out_features=1, bias=True)
  (lin2): Linear(in_features=32, out_features=1, bias=True)
  (lin3): Linear(in_features=32, out_features=1, bias=True)
  (att_1): Linear(in_features=32, out_features=16, bias=True)
  (att_2): Linear(in_features=32, out_features=16, bias=True)
  (query): Linear(in_features=16, out_features=1, bias=True)
)
Epoch: 01, Loss: 0.5558, Val_AUC: 0.8803, Val_AP: 0.9134, Test_AUC: 0.8739, Test_AP: 0.8959
Epoch: 02, Loss: 0.4975, Val_AUC: 0.8944, Val_AP: 0.9241, Test_AUC: 0.8810, Test_AP: 0.9061
Epoch: 03, Loss: 0.4896, Val_AUC: 0.8974, Val_AP: 0.9279, Test_AUC: 0.8862, Test_AP: 0.9130
Epoch: 04, Loss: 0.4832, Val_AUC: 0.9078, Val_AP: 0.9335, Test_AUC: 0.8939, Test_AP: 0.9194
…
