…
prepare_experiment: load_data
prepare_experiment: construct_knn_graph
prepare_experiment: train_node2vec_emb
prepare_experiment: shxgb
prepare_experiment: make_split_bundle
prepare_experiment: build train_dataset drnl
prepare_experiment: build val_dataset drnl
prepare_experiment: build test_dataset drnl
prepare_experiment: build train_dataset de
prepare_experiment: build val_dataset de
prepare_experiment: build test_dataset de
prepare_experiment: done
ASLAMSSMAttn(
  (dgcnn): DGCNN(
    (convs): ModuleList(
      (0): GCNConv(51, 32)
      (1-2): 2 x GCNConv(32, 32)
      (3): GCNConv(32, 1)
    )
    (conv1): Conv1d(1, 16, kernel_size=(97,), stride=(97,))
    (maxpool1d): MaxPool1d(kernel_size=2, stride=2, padding=0, dilation=1, ceil_mode=False)
    (conv2): Conv1d(16, 32, kernel_size=(5,), stride=(1,))
    (lin1): Linear(in_features=32, out_features=16, bias=True)
  )
  (dgcnn_2): DGCNN(
    (convs): ModuleList(
      (0): GCNConv(33, 32)
      (1-2): 2 x GCNConv(32, 32)
      (3): GCNConv(32, 1)
    )
    (conv1): Conv1d(1, 16, kernel_size=(97,), stride=(97,))
    (maxpool1d): MaxPool1d(kernel_size=2, stride=2, padding=0, dilation=1, ceil_mode=False)
    (conv2): Conv1d(16, 32, kernel_size=(5,), stride=(1,))
    (lin1): Linear(in_features=32, out_features=16, bias=True)
  )
  (semantic_proj): Sequential(
    (0): LayerNorm((32,), eps=1e-05, elementwise_affine=True)
    (1): Linear(in_features=32, out_features=32, bias=True)
    (2): GELU(approximate='none')
  )
  (degree_proj): Sequential(
    (0): Linear(in_features=4, out_features=32, bias=True)
    (1): GELU(approximate='none')
    (2): Linear(in_features=32, out_features=32, bias=True)
  )
  (token_embedding): Embedding(5, 32)
  (ssm_blocks): ModuleList(
    (0-1): 2 x SelectiveStateSpaceBlock(
      (norm): LayerNorm((32,), eps=1e-05, elementwise_affine=True)
      (in_proj): Linear(in_features=32, out_features=128, bias=True)
      (out_proj): Linear(in_features=32, out_features=32, bias=True)
      (dropout): Dropout(p=0.1, inplace=False)
    )
  )
  (attn): MultiheadAttention(
    (out_proj): NonDynamicallyQuantizableLinear(in_features=32, out_features=32, bias=True)
  )
  (attn_norm): LayerNorm((32,), eps=1e-05, elementwise_affine=True)
  (dropout): Dropout(p=0.1, inplace=False)
  (score): Linear(in_features=32, out_features=1, bias=True)
  (reliability): Sequential(
    (0): Linear(in_features=64, out_features=32, bias=True)
    (1): GELU(approximate='none')
    (2): Linear(in_features=32, out_features=1, bias=True)
  )
  (lin1): Linear(in_features=32, out_features=1, bias=True)
  (lin2): Linear(in_features=32, out_features=1, bias=True)
  (lin3): Linear(in_features=32, out_features=1, bias=True)
)
Epoch: 01, Loss: 0.5256, Val_AUC: 0.9645, Val_AP: 0.9614, Test_AUC: 0.9635, Test_AP: 0.9635
Run:  1, Test AUC: 0.9635, Test AP: 0.9635
The average AUC for test data is 0.9635
The average AP for test data is 0.9635
The std of AUC for test data is 0.0000
The std of AP for test data is 0.0000
36
